S2R_platform/policys/model_value2.pth (torch, 71930 bytes, 5 tensors)

sequential.0.weight f4 [128, 4]
0	0x40ab1ec7	5.347507
1	0x3e0e9664	0.13924557
2	0x3e5b3575	0.21407111
3	0x3c60376b	0.013685088
4	0x40d66ce3	6.700792
5	0x3d3eac2a	0.046550907
6	0xc0980820	-4.750992
7	0x3bc95ffc	0.0061454754
8	0xc0b38101	-5.6094975
9	0x3d3c9a98	0.04604587
10	0x40076d8c	2.1160612
11	0x3e482d94	0.19548637
12	0x3f141264	0.5784056
13	0xbea838c0	-0.32855797
14	0xc09941e3	-4.789293
15	0x3c66f83e	0.0140972715
16	0xc101e047	-8.117255
17	0x3c6979a9	0.014250197
18	0x3e692433	0.22767715
19	0xbee20351	-0.44143155
20	0x402f3423	2.7375572
21	0x3e117b0c	0.14207095
22	0x4027a410	2.6193886
23	0x3d5f851d	0.054570306
24	0xc10eb173	-8.918323
25	0x3d97863b	0.07398649
26	0x3e92530d	0.28578988
27	0x3bee9b4f	0.007281698
28	0xc1327ec5	-11.15595
29	0xbcf72edf	-0.030173717
30	0xc06947fa	-3.645018
31	0x3a4eb690	0.00078854803
32	0x40f02ff5	7.505854
33	0x3ce929c2	0.028462294
34	0xbdcfc526	-0.10145025
35	0xbbc1adf5	-0.00591063
36	0xc0b92553	-5.785806
37	0xbe48402d	-0.19555731
38	0x400e8a84	2.2272043
39	0xbc8e34de	-0.017359193
40	0xc01eed4e	-2.483234
41	0x39b81e00	0.00035117567
42	0xc13c40ad	-11.76579
43	0x3ba1dead	0.004939875
44	0xbf804268	-1.0020266
45	0x3c600f6f	0.013675555
46	0xc0e26ef8	-7.076046
47	0x3c199b7e	0.009375451
48	0xc023b174	-2.5577059
49	0xbacdc6ec	-0.0015699542
50	0x3fe29047	1.770028
51	0x3afa4737	0.001909471
52	0xc132b8a1	-11.170075
53	0xbb85da5e	-0.0040848693
54	0x3e7eb2ae	0.24872848
55	0xbba45c25	-0.0050158673
56	0x40a79e42	5.2380686
57	0xbbe18225	-0.0068819695
58	0x3cdb4b60	0.02676934
59	0xbe939075	-0.2882115
60	0x410f149a	8.94253
61	0x3e9d292e	0.3069548
62	0xbf80856f	-1.0040721
63	0x3c2087bf	0.009797989
64	0xc0ccd5ed	-6.401114
65	0xbec9cfa4	-0.3941623
66	0xc087c15b	-4.242353
67	0xbbd23f18	-0.006416213
68	0xc0d317b7	-6.596645
69	0x3c2fbab0	0.010725662
70	0xc0346df9	-2.8192122
71	0x3dfee8de	0.1244676
72	0xc12da09c	-10.851711
73	0xbd9f8f35	-0.077909864
74	0x3dc54926	0.096330926
75	0x3ac978fb	0.0015371138
76	0xbeb5c51b	-0.35501942
77	0xbcfd17a3	-0.03089506
78	0xc147f616	-12.49758
79	0x3ddcbd19	0.10778255
80	0x4100c4e8	8.048073
81	0x3df0df52	0.11761345
82	0xbf1e8b2d	-0.61931115
83	0xbb241f78	-0.002504317
84	0xbfd2b212	-1.6460593
85	0x3c51f2cf	0.012814238
86	0xc1332d49	-11.198556
87	0x3c5571b7	0.0130276
88	0x40d3f8ba	6.624112
89	0x3d0cfbe8	0.034419924
90	0xbf34333c	-0.7039068
91	0x3d85b9d9	0.06529588
92	0x410204f0	8.126205
93	0xbe0ed179	-0.13947095
94	0x4057fbec	3.374751
95	0x3c444e78	0.011981599
96	0x41069270	8.410751
97	0x3ce614ed	0.02808615
98	0x3fb43049	1.4077235
99	0xbd808043	-0.06274464
100	0x40ed1e62	7.409959
101	0x3b42fc43	0.002975241
102	0xbd4630a5	-0.048386235
103	0x3bfe5150	0.007761158
104	0x40f542e3	7.664415
105	0x3cd16a97	0.025563521
106	0xbfd5127e	-1.6646268
107	0x3e42af45	0.19012173
108	0x411159ae	9.084394
109	0x3d00fa7e	0.031488888
110	0xc0c18f82	-6.048768
111	0x3d1c90e0	0.0382241
112	0x40553063	3.3310783
113	0xbc6e9552	-0.014561968
114	0xc12a4c9f	-10.643706
115	0x3d9120db	0.07086345
116	0xc1550565	-13.313817
117	0xbc8dcd91	-0.017309936
118	0xc0293da8	-2.6443882
119	0x3c898b2d	0.016789997
120	0x3e9aa6c7	0.30205366
121	0xbd03e40c	-0.032199904
122	0xc0624431	-3.535412
123	0xbb70f661	-0.0036767947
124	0xc0b41225	-5.627215
125	0xbd927328	-0.071508706
126	0xbf864f42	-1.0492938
127	0xbd28292d	-0.041054893
128	0x40769cf1	3.853329
129	0x3cb38e03	0.021918302
130	0xc081db0a	-4.057988
131	0x3d23238b	0.03982882
132	0x4143113c	12.191708
133	0x3d27a04b	0.04092435
134	0x405debfd	3.4675286
135	0xb981a668	-0.0002472878
136	0xc105aa53	-8.354083
137	0x3c9a43e4	0.0188312
138	0xc0cde52c	-6.434225
139	0x3c5cab70	0.013468608
140	0x408c6407	4.3872104
141	0xbcc4df86	-0.024032366
142	0xbfbdd120	-1.4829445
143	0x3a7ca671	0.0009637839
144	0xc0b04bc0	-5.509247
145	0xbdd6187c	-0.10453889
146	0x402c122b	2.688609
147	0xbb56aef2	-0.0032758084
148	0x415b6ebc	13.714535
149	0x3a9749e1	0.0011542403
150	0x3f539917	0.8265547
151	0xbcf0f4b8	-0.029413566
152	0x40bd24df	5.910751
153	0x3cbaff74	0.022826888
154	0x4103ad03	8.229739
155	0xbb88ada5	-0.0041710907
156	0x41059fdd	8.351529
157	0x3e34ffdd	0.17675729
158	0xbfbddc49	-1.4832851
159	0x3d2d9ba2	0.04238475
160	0xc121f91e	-10.12332
161	0xbdb6f672	-0.089337245
162	0xbf956b97	-1.1673459
163	0xbc3932f2	-0.01130365
164	0xc0c0fe75	-6.0310616
165	0xbd88bd25	-0.066767015
166	0x3eeaeccc	0.45883787
167	0x3c2d9dd1	0.010596708
168	0x4122af59	10.1678095
169	0xbdaae390	-0.08344185
170	0x4080fb74	4.030695
171	0xbc061083	-0.008182648
172	0xbf20e1ea	-0.6284472
173	0xba16f90f	-0.00057591585
174	0xbf0a5c9a	-0.5404755
175	0x3cd5fe2d	0.026122177
176	0x40fed477	7.9634356
177	0x3ad66ffa	0.0016360276
178	0xbff6563d	-1.9245068
179	0xbd082bde	-0.03324496
180	0x4123f65e	10.247648
181	0x3e261051	0.16217162
182	0xbfbd7ac3	-1.4803089
183	0x3ca76351	0.0204331
184	0x415fef09	13.995858
185	0x3d93ca6e	0.07216345
186	0x3ed9ebd1	0.42562726
187	0x3bbf79fd	0.0058433996
188	0x4133bf07	11.234138
189	0x3d09acf7	0.033612218
190	0x3e90755b	0.28214535
191	0xbb7c005f	-0.003845237
192	0x4105cede	8.363005
193	0x3c21d7b6	0.00987809
194	0x406f291e	3.7368846
195	0xbd6b579b	-0.057456594
196	0xbee6e5bd	-0.4509715
197	0x3c13b59c	0.009015467
198	0xbfb85851	-1.4401952
199	0xbe0cb9c2	-0.13742736
200	0xc016d8aa	-2.3569741
201	0xbe2071b9	-0.15668382
202	0xbf5d5b6e	-0.86467636
203	0xbc01dab9	-0.007925683
204	0xbf325dbe	-0.6967429
205	0x3dd0e108	0.10199171
206	0xbcbc6aba	-0.02300011
207	0x3d516ca6	0.051129006
208	0xc0e1665a	-7.043744
209	0x3e03c746	0.12868986
210	0xbfcfd3a0	-1.6236458
211	0xbcdf0ee7	-0.027228786
212	0x3f31a638	0.69394255
213	0xbeb8576a	-0.36004192
214	0x3e8e62cd	0.27809754
215	0xbb08ea63	-0.0020891658
216	0xc10a6cbd	-8.651547
217	0xbd71eeb7	-0.059065547
218	0xc0aa693c	-5.325346
219	0xbbdda841	-0.006764442
220	0xc10cbf19	-8.796655
221	0x3bb36ca1	0.005475596
222	0xc1043c71	-8.264756
223	0x3c6f0586	0.014588719
224	0x41280f03	10.503665
225	0x3da1c247	0.078983836
226	0xc07f607b	-3.9902637
227	0xbcb07d0c	-0.021544002
228	0xc10f6219	-8.96145
229	0xbcb18558	-0.021670029
230	0xc011f84b	-2.2807796
231	0xbde4781e	-0.11155723
232	0xc145a442	-12.352602
233	0xbce712ce	-0.028207209
234	0xbf3550c5	-0.7082637
235	0x3bdbf66c	0.0067127254
236	0xc06fbf85	-3.7460644
237	0xbdc88189	-0.09790332
238	0x40f5dd18	7.683239
239	0x3da5ae8f	0.08089935
240	0xc14b7b8e	-12.717665
241	0xbcfb6543	-0.030687934
242	0xbfcbe556	-1.5929363
243	0x3ba46b6b	0.005017688
244	0xc07ff16f	-3.999111
245	0x3aba41f4	0.0014210329
246	0x403ea153	2.9785964
247	0x3df66dbe	0.120326504
248	0xc13c3906	-11.763922
249	0xbd53b5e6	-0.051687144
250	0xbfc87e25	-1.5663496
251	0xb69f5400	-4.748348e-06
252	0x41676bf2	14.463854
253	0x3d75c548	0.060002595
254	0x3f7fe098	0.9995208
255	0xbb9e02ba	-0.0048221024

sequential.0.bias f4 [128]
0	0x40923bb7	4.5697894
1	0x3ffb593d	1.9636608
2	0xc0adbe26	-5.4294615
3	0x41077acf	8.467483
4	0xc0092320	-2.1427689
5	0x40708d3e	3.7586207
6	0x40874b0a	4.22791
7	0xc06a7c7b	-3.6638477
8	0x403b62ba	2.9279008
9	0x3f60173c	0.8753545
10	0xc011c098	-2.27738
11	0xc0955215	-4.66627
12	0xc112f0d8	-9.1838
13	0xc0a8f8b9	-5.2803617
14	0x3cc44126	0.023956846
15	0xbd91aeb8	-0.07113403
16	0x40faeaa1	7.841141
17	0xc1349fdf	-11.289031
18	0x3fff67c3	1.995354
19	0x3f5774cc	0.8416259
20	0xc137fbf8	-11.499016
21	0x400e61f7	2.2247293
22	0x4063dafc	3.5602407
23	0xc0002831	-2.002453
24	0x40177a5f	2.366844
25	0x40e72c0e	7.224128
26	0x3fa38cfe	1.2777402
27	0xbff9a541	-1.9503556
28	0xc0bfa063	-5.9883285
29	0x3f70dc65	0.94086295
30	0x402408fe	2.5630488
31	0xc1188d04	-9.534428
32	0xbf1bb957	-0.6082968
33	0xbec9cd81	-0.394146
34	0xbfedd74c	-1.8581328
35	0x41501038	13.00396
36	0x403ea044	2.9785318
37	0x3fb9bd9b	1.4510988
38	0x3c6a4057	0.014297566
39	0xc0fb41ca	-7.851781
40	0x3ea364db	0.31912884
41	0xc13689c8	-11.408638
42	0x3f748d0a	0.9552771
43	0xc07028eb	-3.7524974
44	0x40dea550	6.9576797
45	0x3f48b771	0.7840491
46	0x3e03f481	0.1288624
47	0x400b98f0	2.1812096
48	0x40bd8f69	5.923756
49	0xc031c27f	-2.777496
50	0x411b6b57	9.713706
51	0xc0f7040e	-7.719245
52	0xc0d30c61	-6.595261
53	0x4125c3da	10.360315
54	0xc0ff0e8c	-7.9705257
55	0x407651b4	3.8487368
56	0xbf43805e	-0.7636775
57	0x3e60e040	0.21960545
58	0x3e1ba12c	0.15198201
59	0xc1330273	-11.188098
60	0x4081680d	4.0439515
61	0xc1129fae	-9.163984
62	0x3f3de565	0.74178153
63	0xbe3bccd1	-0.1833985
64	0xbfe3aa3f	-1.778633
65	0x406802e4	3.6251764
66	0x4049ba19	3.1519835
67	0xc0cf3e5d	-6.4763627
68	0xc118b502	-9.544191
69	0x405c949f	3.446571
70	0x400e0d5a	2.219565
71	0xc0177376	-2.3664222
72	0x4050618d	3.255954
73	0xc1560af5	-13.377675
74	0x40979d2c	4.737936
75	0x40a8b26d	5.2717805
76	0xc0a3d6df	-5.1199794
77	0xc10d1c03	-8.819339
78	0xc08575ae	-4.170615
79	0x4101d723	8.115024
80	0xc07faea9	-3.9950354
81	0xbf596c51	-0.849309
82	0x41208a4c	10.033764
83	0xc0dc0664	-6.87578
84	0xc012262d	-2.28358
85	0xc05dff64	-3.4687128
86	0xbf3b8fd2	-0.7326633
87	0x400de5c0	2.2171478
88	0xbef1c25c	-0.47218597
89	0xbe6a76ce	-0.22896883
90	0xbc732bac	-0.014841955
91	0x40f7e07b	7.7461524
92	0xbf9184ff	-1.1368712
93	0xbf36aad4	-0.71354413
94	0xc0d90466	-6.781787
95	0xc0c6fea0	-6.218582
96	0xc0ae17c1	-5.4403996
97	0xc0cbf1fa	-6.373288
98	0x3e2d81a6	0.16943988
99	0xbe92cfe6	-0.2867424
100	0xc01cf05c	-2.4521704
101	0x40755028	3.8330173
102	0xc10d7b7b	-8.842647
103	0x4073f801	3.812012
104	0xc0a10c6e	-5.0327673
105	0x3f8cfa4a	1.1013882
106	0xc179359d	-15.575589
107	0x3f0e4b4d	0.5558365
108	0x3ee88bae	0.45419067
109	0x3fb883cc	1.4415221
110	0xbf3530d9	-0.7077766
111	0x40b50419	5.65675
112	0xc04e1748	-3.220171
113	0xc11b17b6	-9.693289
114	0x410734e1	8.45041
115	0xc0f22ce1	-7.5679784
116	0xc14677c4	-12.40424
117	0xbfd31baa	-1.6492817
118	0xbfbe2e47	-1.4857873
119	0xc08410a4	-4.1270313
120	0x40333369	2.8000128
121	0xbf436371	-0.7632361
122	0x400055c3	2.0052345
123	0xc0efab81	-7.4896855
124	0x3d30e3fe	0.04318618
125	0x41019da9	8.100991
126	0xc01f322e	-2.4874377
127	0xc0acd9cd	-5.401587

sequential.2.weight f4 [128, 128]
0	0x3ee009eb	0.43757567
1	0x3ea86932	0.32892758
2	0x3e8622fd	0.2619857
3	0x3ed084e5	0.4072639
4	0xbe149f2a	-0.14513841
5	0x3d9ff58d	0.07810507
6	0xbe46ec47	-0.1942607
7	0x3e8bfe9e	0.27342695
8	0x3e9b8b5f	0.3037977
9	0xbf1666fc	-0.5875089
10	0xbd9e828d	-0.07739744
11	0xbeab727b	-0.3348578
12	0x3f09513e	0.5363959
13	0xbeb7c15e	-0.35889715
14	0xbe39344f	-0.1808636
15	0x3edd53a6	0.4322788
16	0x3f8b4c9f	1.0882758
17	0x3fd22257	1.641673
18	0xbff7486f	-1.931898
19	0xc010bf13	-2.2616622
20	0xc0116eb6	-2.2723823
21	0xbfcf978d	-1.6218125
22	0x3e9f1327	0.310693
23	0xbfc07a40	-1.5037308
24	0x3f7ca6ac	0.9869182
25	0x3f3ecaff	0.745285
26	0x3e7a738f	0.24458145
27	0x3f22a6ff	0.63536066
28	0x3ed5fbbc	0.4179362
29	0xc0e94f26	-7.2909117
30	0x3e90b20e	0.28260845
31	0xbed5610f	-0.41675612
32	0xbf50d9d2	-0.8158237
33	0x3eeb3658	0.45939898
34	0xbf8ea741	-1.1144792
35	0xbea7f9c3	-0.3280774
36	0x403c390f	2.9409826
37	0x3ef86b5b	0.48519406
38	0x3e8c8fac	0.27453363
39	0x3ea722fd	0.3264388
40	0xc06b1511	-3.6731608
41	0x3f5024d0	0.8130617
42	0xbed35b4a	-0.41280586
43	0x3eef8825	0.46783558
44	0x3ecbd5e1	0.39811614
45	0x3eb2d348	0.3492682
46	0x3f0ae3ca	0.5425383
47	0x3f6b1df0	0.91842556
48	0x3f1a2090	0.60205936
49	0xbdad62f4	-0.084661394
50	0x3ea5e6cf	0.32402655
51	0xbe9fd6c8	-0.31218553
52	0x3f1c8a81	0.6114884
53	0x3e7b00e4	0.24512058
54	0xbe97dadb	-0.2965916
55	0xc0caefd0	-6.341774
56	0x3f09153e	0.5354804
57	0x3f6c8541	0.9239083
58	0xc01e6817	-2.4751031
59	0xbfd834fb	-1.6891168
60	0xc0c60b16	-6.1888533
61	0xbe800113	-0.2500082
62	0xc08a1885	-4.315493
63	0x3ee96108	0.4558184
64	0xbeec405f	-0.4614286
65	0xbf5161e6	-0.81790006
66	0x3eedbaa2	0.46431452
67	0xbf324ad0	-0.69645405
68	0xbf462529	-0.7740045
69	0x3f9c39ed	1.2205178
70	0xbf20aed4	-0.62766767
71	0x3e84717a	0.25867826
72	0x3f0a92b1	0.54130083
73	0x3f4f0dda	0.8088051
74	0x3f0fb3f3	0.56133956
75	0x3f192b89	0.59832054
76	0xc009ed90	-2.1551247
77	0x3d975a51	0.07390273
78	0x3eba4ace	0.36385196
79	0xbe7ae9a9	-0.24503197
80	0x3f0c0b96	0.5470518
81	0xbfd789cd	-1.6838928
82	0x3f86e8f2	1.0539839
83	0xbf9ca9c5	-1.223931
84	0xbf95b7b0	-1.1696682
85	0xbf26c5cd	-0.6514557
86	0x3f22e7ea	0.6363512
87	0xbeeff84c	-0.46869123
88	0x3f02cd5b	0.510946
89	0xbf22fb16	-0.63664377
90	0xbf9af747	-1.2106713
91	0x3f326541	0.6968575
92	0xbd61b105	-0.05510046
93	0x3ea10ccf	0.31455085
94	0xbf1b9d47	-0.6078686
95	0x3f820483	1.0157627
96	0x3fbf2a2c	1.4934745
97	0xbeb83b81	-0.35982898
98	0xc01c0482	-2.4377751
99	0x3f3ad8bc	0.7298696
100	0xbe834ff8	-0.2564695
101	0xc0a97a90	-5.2962112
102	0xbf6d98e8	-0.9281144
103	0x3ec42e0d	0.38316384
104	0x3f3f67ae	0.7476758
105	0x3f6217d2	0.88317597
106	0x3e7cb706	0.24679193
107	0x3e175a4b	0.14780538
108	0x3dcf2714	0.101148754
109	0x3e8f3669	0.279712
110	0xbf40640e	-0.7515267
111	0x3e731cd0	0.2374146
112	0xbd944e98	-0.07241553
113	0x3f983e08	1.189393
114	0x3f14ff89	0.58202416
115	0xbde3638b	-0.11102971
116	0x3f4e0324	0.8047354
117	0xbd8077cb	-0.06272849
118	0xbe6c1b20	-0.23057222
119	0x3f0e275f	0.55528826
120	0x3edb17db	0.42791638
121	0x3ecc18a7	0.39862558
122	0x3caf57ec	0.02140423
123	0xbde430f1	-0.11142147
124	0xc07c86e3	-3.9457328
125	0x3e5c2777	0.2149943
126	0x3ea2e659	0.31816366
127	0xbead7416	-0.3387763
128	0xbde11b6f	-0.10991561
129	0xbdada2e1	-0.08478332
130	0xbdd29161	-0.10281635
131	0xbe6133d8	-0.21992433
132	0xbd2819de	-0.041040294
133	0xbe0e42b2	-0.1389263
134	0xbd2235df	-0.039602157
135	0xbbf8e548	-0.007595692
136	0x3c346665	0.011010741
137	0x3d33abad	0.043864895
138	0xbe224e39	-0.15850152
139	0x3dbabef9	0.091184564
140	0x3d5ca9c8	0.053872854
141	0x3c7a2f84	0.015270118
142	0xbdc39838	-0.09550518
143	0x3db545a5	0.08851174
144	0x3c7c1600	0.015386105
145	0x3d93f875	0.07225124
146	0xbd50dfbe	-0.050994627
147	0xbb3c46a4	-0.0028728629
148	0xbd949ddc	-0.07256672
149	0xba843f73	-0.001008971
150	0xbdded5c8	-0.10880619
151	0x3dbc81d2	0.09204449
152	0xbd2d243d	-0.042270888
153	0xbe18b691	-0.14913394
154	0xbe243d2d	-0.16038962
155	0xbd8bc680	-0.0682497
156	0xbe08f618	-0.13375127
157	0xbe96be8c	-0.2944225
158	0xbc37dd92	-0.01122226
159	0xbc7c794b	-0.015409778
160	0xbe304af5	-0.17216094
161	0x3ce101ac	0.027466618
162	0x3c05eac0	0.008173645
163	0xbce8a84a	-0.028400559
164	0x3d8db779	0.0691976
165	0xbd9bdf88	-0.076109946
166	0xbd939521	-0.072061785
167	0xbcd7e8b3	-0.026356077
168	0x3ddf6ce5	0.10909442
169	0x3ccf1f7b	0.025283566
170	0xbd886599	-0.06660003
171	0x3b66d2b6	0.0035220808
172	0xbd687d7c	-0.056760296
173	0xbe29444c	-0.1652996
174	0xbd718d17	-0.058972444
175	0x3d05446a	0.032535948
176	0xbe2c071e	-0.1679959
177	0xbab28f16	-0.0013622965
178	0x3dbc3fbf	0.09191846
179	0xbdc69ca0	-0.096978426
180	0xbdefe597	-0.11713713
181	0x3daeddf2	0.085384265
182	0xbd98ea3c	-0.07466552
183	0xbc8fe13e	-0.017563459
184	0xbdf4ff33	-0.11962738
185	0xbe0b2098	-0.13586652
186	0xbddf4a93	-0.10902896
187	0xbcd3c7b4	-0.025852062
188	0xbe4bca59	-0.19901408
189	0xbd207ae4	-0.039179698
190	0xbcbcf796	-0.023067277
191	0xbd1b814d	-0.037965108
192	0x3dbfdd3b	0.09368368
193	0xbe4e3802	-0.20138553
194	0x3dece2ca	0.11566694
195	0xbdbbc7f7	-0.09169
196	0xbe274a42	-0.16336921
197	0xbcd92f34	-0.026511766
198	0x3daddbb2	0.08489169
199	0xbd88a452	-0.066719666
200	0x3da85939	0.08220143
201	0xbddecdb2	-0.10879077
202	0x3d8ea6b7	0.06965392
203	0xbdedd311	-0.11612523
204	0xbe2c27ab	-0.16812007
205	0x3b7d9c27	0.003869781
206	0xbddea6be	-0.10871647
207	0xbcdc6a2a	-0.026906092
208	0x3dfe66e8	0.124219716
209	0x3cb5b9a9	0.022183256
210	0xbd63ae5e	-0.05558621
211	0xbc861d7f	-0.016371487
212	0xbd332aae	-0.043741874
213	0xbd28df27	-0.04122844
214	0x3dc7bec7	0.09753185
215	0xbe312a2a	-0.1730124
216	0xbdf92bfc	-0.121665925
217	0xbdaa6694	-0.083203465
218	0x3c6027b5	0.013681342
219	0x3d44f26b	0.04808275
220	0xbdc2f7fc	-0.095199555
221	0xbc75dc53	-0.015006143
222	0xbdade185	-0.0849028
223	0xbdbaee3a	-0.09127469
224	0x3cbe20db	0.023209026
225	0xbdb54e6e	-0.0885285
226	0xbe346cd0	-0.17619634
227	0x3d750134	0.0598156
228	0x3ab40544	0.001373448
229	0xbdb22d50	-0.08700049
230	0xbda61ccb	-0.081109606
231	0xbe58c679	-0.21169461
232	0x3da9d444	0.082924396
233	0xbda73abe	-0.08165501
234	0xbe6aa85d	-0.22915788
235	0x3d796b9c	0.06089364
236	0xbe056caf	-0.13029741
237	0x3dc72f09	0.09725768
238	0xbe4e2631	-0.20131756
239	0x392411ba	0.00015646862
240	0x3d181291	0.03712708
241	0xbd918485	-0.07105354
242	0x3d78151c	0.060567006
243	0xbe07b9ed	-0.13254519
244	0xbde86acb	-0.11348494
245	0xbd078deb	-0.033094328
246	0x3c865bd9	0.016401218
247	0x3e143439	0.14473046
248	0x3d2e4bc4	0.042552724
249	0xbd8720a2	-0.06598021
250	0xbdefd2a4	-0.117100984
251	0xbcc489f8	-0.02399157
252	0xbd3fd03c	-0.046829447
253	0x3d96f606	0.07371144
254	0xbd8b8bab	-0.06813749
255	0xbd843e6d	-0.06457219

sequential.2.bias f4 [128]
0	0x4011d4d3	2.2786148
1	0xbd48bfe8	-0.04901114
2	0xbfe40ec2	-1.7817004
3	0x3fc78b28	1.5589342
4	0x4019df1d	2.4042428
5	0xbd2056fe	-0.039145462
6	0x3fea9111	1.8325521
7	0x3db81f15	0.089903034
8	0xbe1b0529	-0.15138687
9	0xbcb448a0	-0.022007287
10	0x3f1db43d	0.61603147
11	0x4000859e	2.0081553
12	0x3e764f83	0.24053769
13	0x3ec78031	0.3896499
14	0xbfc77488	-1.5582438
15	0xbd2b5821	-0.041832093
16	0x3de34cea	0.110986546
17	0xc015e9a5	-2.3423855
18	0xbd26abe8	-0.040691286
19	0xbfec4244	-1.8457723
20	0x3fc3a1d7	1.5283765
21	0xbcf5a465	-0.029985616
22	0xc022b15c	-2.5420752
23	0x3f3ffc83	0.7499468
24	0x00000000	0.0
25	0x3f4261d8	0.7593055
26	0xbcb43953	-0.02199999
27	0x3e802097	0.25024864
28	0x3fe00fd5	1.7504832
29	0xbece2a88	-0.40266824
30	0x3ff278d5	1.8943125
31	0x40732a3d	3.799453
32	0xbe5a9498	-0.21345747
33	0x3eb0b438	0.34512496
34	0x40102e15	2.2528126
35	0xc0f860b6	-7.7618055
36	0xbe1c5bff	-0.15269469
37	0x4051b89e	3.2768931
38	0xbd1d6e0a	-0.03843502
39	0x3f40f32d	0.75371057
40	0xbea18149	-0.3154395
41	0x3ed3eade	0.41390127
42	0x3cc69de5	0.024245212
43	0x3d0c546d	0.034260202
44	0xbcc17f4d	-0.023620272
45	0x40889df9	4.269284
46	0xc0009cdf	-2.0095747
47	0x3fa8ae8e	1.317827
48	0x3fdcdc90	1.725481
49	0x40489b02	3.134461
50	0x403a9a81	2.9156802
51	0x3f7c2ad4	0.9850285
52	0xc1024134	-8.140919
53	0xbf0ef720	-0.5584583
54	0xc00d390a	-2.2066064
55	0x3fa2c4ae	1.2716272
56	0xbc17c62d	-0.009263557
57	0x3cb9072b	0.022586426
58	0xbf779d22	-0.9672414
59	0x40609c21	3.5095294
60	0x3f5c9681	0.8616715
61	0x3f40e68f	0.75351804
62	0x401f14a0	2.4856339
63	0x3f646fa8	0.89232874
64	0x4012df69	2.2948859
65	0xbdb2fa82	-0.08739187
66	0x3f407807	0.7518315
67	0xbd5a89fa	-0.05335424
68	0x40531e9e	3.2987437
69	0x3fe1d0ec	1.7641883
70	0x401b0191	2.4219706
71	0x4057fd0c	3.3748198
72	0xbea212ef	-0.3165507
73	0x3f370a79	0.71500355
74	0xbd1d7849	-0.03844479
75	0xbd7baa59	-0.061441753
76	0x3e1bda1b	0.1521992
77	0xbe014fbf	-0.12628077
78	0x3f0a28c2	0.5396844
79	0x3f9d831a	1.2305634
80	0x3f6b998c	0.9203117
81	0x3b4d6365	0.0031339761
82	0x3f8d9e2b	1.1063894
83	0xbd9d2bd4	-0.07674375
84	0xbe0a4bc8	-0.13505471
85	0x40a811e5	5.2521844
86	0xbda3d1b2	-0.079989806
87	0x404de8eb	3.2173412
88	0x3f853840	1.0407791
89	0x3faa47f1	1.3303205
90	0xbf8461a1	-1.0342294
91	0x3fb15251	1.3853246
92	0x40161390	2.344944
93	0xbcd01ccb	-0.025404355
94	0x3ea30c36	0.31845254
95	0x3fb45701	1.4089051
96	0x3f64c878	0.8936839
97	0x3fb0dd91	1.3817617
98	0x3fa1e830	1.2648983
99	0x3fcfd5ed	1.623716
100	0x40093c67	2.1443117
101	0x3fc13051	1.509287
102	0xc05b5d8d	-3.427585
103	0xc0152b93	-2.3307846
104	0x3e775c6d	0.24156351
105	0x3f9874bf	1.1910628
106	0x400cdaef	2.2008626
107	0x3ff9c7ef	1.951414
108	0xbd2e9f34	-0.042632297
109	0x400b51bf	2.1768644
110	0xbd60eb29	-0.054911766
111	0x3db241c9	0.08703954
112	0x3fc9b1f8	1.5757437
113	0x400a1f36	2.158155
114	0x40106944	2.256425
115	0xbd0ff2ef	-0.03514379
116	0xbcfff419	-0.031244325
117	0xbf7dcc37	-0.9913973
118	0x4025030d	2.5783112
119	0xbf56b232	-0.83865654
120	0xc0b5815b	-5.6720405
121	0x40600375	3.500211
122	0x40a94865	5.290087
123	0x3f7d937e	0.9905318
124	0x3ff0697d	1.8782192
125	0x3f85ff67	1.0468568
126	0xbcd10b92	-0.025518212
127	0x3fa12439	1.2589179

sequential.4.weight f4 [1, 128]
0	0xbf024006	-0.5087894
1	0xbca68b56	-0.020330112
2	0x400f6a0c	2.2408476
3	0x3fbc696c	1.4719672
4	0xbe6917fd	-0.22763057
5	0x3e289acf	0.16465305
6	0xbe98d711	-0.29851583
7	0x3de6a0c2	0.11261131
8	0x3f3cdad8	0.7377143
9	0x3c504c9b	0.012713577
10	0xbee35163	-0.4439803
11	0x3d1c06fb	0.038092595
12	0xbf1f7514	-0.6228802
13	0xbf9e5853	-1.2370704
14	0x3fd66aae	1.6751306
15	0xbdb97fd2	-0.09057583
16	0xbf7e8c08	-0.9943242
17	0xc02a892d	-2.6646225
18	0xbc77a44f	-0.015114858
19	0x3f8dc1b5	1.107474
20	0xbf463c48	-0.7743573
21	0xbe3dffb0	-0.18554568
22	0x406c5c68	3.69314
23	0x3e6f5473	0.23372059
24	0x3d987e70	0.07445991
25	0x3fb63643	1.4235309
26	0xbd99a26d	-0.075016834
27	0x3ea5e0ea	0.32398158
28	0xbf10e554	-0.56599927
29	0xbe40458d	-0.18776532
30	0xbe68b90b	-0.22726838
31	0x3f9d4c6a	1.2288945
32	0x3d590d19	0.052991007
33	0xbf907148	-1.1284571
34	0xbe8bcef5	-0.27306333
35	0x411f20cc	9.945507
36	0xbcc5772e	-0.02410468
37	0x3ecb0e53	0.39659366
38	0xbd54cf91	-0.051955763
39	0xbc834028	-0.016021803
40	0x3f9665a2	1.1749766
41	0x3f1b4e87	0.606667
42	0x3d44025c	0.047853813
43	0x3ec148aa	0.3775075
44	0xb8bc95ad	-8.992418e-05
45	0x3f277f15	0.65428287
46	0x40ce9fee	6.4570227
47	0xbdf8c82d	-0.121475555
48	0x401c2a8f	2.4400976
49	0xbc9cf4a2	-0.019159619
50	0xbf02e11f	-0.5112476
51	0x3e0dcf16	0.13848528
52	0x411d219d	9.820706
53	0x3ec0982c	0.37616098
54	0x40e75eb4	7.2303104
55	0x3f7b02db	0.9805123
56	0x3dddad8d	0.10824118
57	0x3ccaaaeb	0.024739703
58	0x4019b83d	2.40187
59	0xbec459c6	-0.38349742
60	0x3f580831	0.843875
61	0xbeba9dd2	-0.36448532
62	0x3fac246b	1.3448614
63	0xbf973535	-1.1813112
64	0x3f42ab5e	0.76042736
65	0xbe213355	-0.15742238
66	0x3f761973	0.9613258
67	0xbe053095	-0.13006814
68	0x3ed3b145	0.41346183
69	0x4017336f	2.3625143
70	0xbf3d4f16	-0.739488
71	0x3f169a5d	0.5882929
72	0xbf334870	-0.70032406
73	0xbfd75426	-1.6822555
74	0x3bffe15b	0.007808847
75	0x3c5b4ac2	0.013384523
76	0xbf87b1fc	-1.0601192
77	0x3e142b90	0.14469743
78	0x3e88bc87	0.26706335
79	0xbd74c883	-0.059761535
80	0xbef4b2da	-0.47792703
81	0x3df0f12d	0.11764751
82	0x3f2a5b25	0.66545326
83	0xbdfe83a2	-0.12427451
84	0x3f429c16	0.7601942
85	0xbec57404	-0.38565075
86	0xbc02f5e2	-0.007993193
87	0xbf77efb6	-0.96850145
88	0x3e07b09e	0.13250968
89	0xbe2d2a39	-0.16910638
90	0xbf48ff10	-0.78514194
91	0xbe771f10	-0.24132943
92	0x3eecb110	0.46228838
93	0x3c6a47f6	0.014299383
94	0x3f5312b6	0.82450426
95	0xbe9e6e88	-0.30943704
96	0xbf3724ed	-0.7154072
97	0xbe922135	-0.2854096
98	0xbdc23f31	-0.09484709
99	0x3f0e65b3	0.5562393
100	0xbf60d8aa	-0.87830603
101	0xbf998efb	-1.1996759
102	0xbf8e0149	-1.1094142
103	0x409431c0	4.631073
104	0x3f6ba0ec	0.9204242
105	0xbf61a7a8	-0.8814645
106	0xbf38c6d6	-0.721784
107	0x3f629e0d	0.88522416
108	0xbcfb3dc6	-0.030669104
109	0x3f473934	0.7782166
110	0x39bfe18b	0.00036598401
111	0xbf4ff0ab	-0.81226605
112	0xbf3818dc	-0.7191293
113	0x3faa9a04	1.3328252
114	0xc00851ad	-2.129985
115	0xbd61d49b	-0.055134397
116	0x3cc7c22b	0.024384579
117	0xbee26bba	-0.44222814
118	0xbf855796	-1.0417354
119	0xbf351054	-0.7072804
120	0x4061b65a	3.5267549
121	0xbfa1512b	-1.2602895
122	0xbfa2040f	-1.2657489
123	0x3f91a18c	1.1377425
124	0x3eeca29d	0.46217814
125	0xbf106dec	-0.5641773
126	0xbdcdcf11	-0.100492604
127	0xbe980caa	-0.29697162
