S2R_platform/policys/model_value1.pth (torch, 71930 bytes, 5 tensors)

sequential.0.weight f4 [128, 4]
-14.468656 -0.101115026 0.10850174 -0.00049463275 -12.463765 -0.028621653 -2.6226344 -0.0017497062
5.296782 -0.10079239 8.622827 -0.011621097 -9.090952 -0.03804266 0.3978842 0.0042322245
7.064368 0.0628559 0.33190832 0.04098514 -10.005051 -0.06961997 -0.005146951 0.025486609
3.0706189 -0.014418439 0.5576335 -0.044978745 7.35901 -0.019625025 0.8398567 0.0075970595
11.026935 -0.055945512 2.9667435 -0.0032209898 8.457789 0.41353104 -1.8675698 -0.01348083
-5.1500754 -0.015510123 0.23744822 1.073217 6.4509234 0.027643345 4.0219145 0.0020368507
-7.6124153 0.010938873 -3.766155 -0.35604727 -10.874813 0.0022531515 -4.9266877 0.036293685
-7.348397 -0.17263363 -3.5924037 0.13946244 7.4510775 0.02091256 -0.17524636 -0.0058952356
-0.59005237 0.04056426 -2.469768 0.10385261 5.5491953 -0.25064188 3.8602922 -0.07776586
7.9982834 0.09287674 -0.7500302 -0.21393505 -5.748307 -0.09701001 3.1710057 -0.08225745
6.2447805 0.005474285 -4.1244755 -0.012627708 14.26537 0.058398962 1.1361631 -0.0072887847
-9.578891 0.17427473 0.13993376 0.010747374 9.04368 0.11512686 -2.9539933 -0.004025245
11.573328 -0.055166915 0.79420066 0.0052692704 15.912438 0.001992368 1.7972904 -0.012163492
-3.5685086 0.064197645 -1.6681013 0.005612214 -5.001049 -0.032776766 12.083719 -0.013659752
4.1020575 0.11776137 1.7984006 -0.004366569 4.9101453 0.024234705 2.3900452 0.53137535
3.075933 -0.076780185 0.47969708 0.0346307 13.036999 -0.04771226 1.7298616 -0.014485408
6.2392664 0.00537524 2.5105975 0.86834633 11.056237 0.06690677 -2.0954976 0.023733838
-2.9405015 0.07060355 -5.9321475 0.029940598 -3.301381 -0.5049663 1.859446 0.00018111888
10.42947 0.031994645 0.83628595 0.0012614935 2.2946632 0.13229631 -4.848912 0.020607525
-2.3694086 -0.028715678 1.59905 0.3142863 -5.875416 -0.16114877 6.138717 -0.007472307
7.624115 0.045252208 -2.5819633 -0.0025647786 7.258935 -0.35836956 1.1569309 -0.009424711
-5.4457984 0.041446924 -11.477344 -0.0033766541 -3.779932 -0.042833284 2.373137 0.064679965
-6.362909 0.049006242 -4.85694 0.10861074 -3.7942173 -0.08938372 -5.05767 0.043632183
6.8869357 0.021089928 0.6944524 0.042486355 12.496655 0.0656534 1.1306813 0.00834671
-3.490786 -0.04456887 8.6336355 0.05671058 4.6282306 -0.07463179 -2.114599 0.10946965
8.44718 -0.028123917 6.9323797 0.0039880765 -3.2016373 0.08065615 0.080065764 0.0010094558
12.879715 0.044127714 1.1437986 0.010228154 9.802343 0.060202304 -2.9127443 0.018531015
-4.7579546 -0.012023152 -1.3042002 -0.628844 -3.8950634 0.03737741 0.51963514 0.0068130745
12.766736 0.061750155 -1.0211325 0.023750085 1.2796451 -0.01074443 -9.657654 0.0026890177
-5.0728936 0.18771443 0.9860113 0.033435855 4.1247964 0.20690207 -6.196487 0.19885786
11.422199 0.04453118 -0.8306417 -0.016500147 0.7962354 -0.060222946 -2.3242924 0.017447636
7.5013537 -0.010425022 0.5168751 0.018752677 10.587344 0.34608805 -1.1461742 0.040051304
00000000: 9d7f 67c1 6515 cfbd 2936 de3d 3eaa 01ba
00000010: 956b 47c1 f577 eabc 3ed9 27c0 6656 e5ba
00000020: 3d7f a940 3e6c cebd 19f7 0941 6a66 3ebc
00000030: 8a74 11c1 9fd2 1bbd 7ab7 cb3e 79ae 8a3b
00000040: 4d0f e240 98ba 803d e3ef a93e 09e0 273d
00000050: b014 20c1 ea94 8ebd c1a7 a8bb 4bc9 d03c
00000060: 0585 4440 513b 6cbc 12c1 0e3f a23b 38bd
00000070: 037d eb40 a9c4 a0bc d900 573f c1f0 f83b
00000080: 536e 3041 1f27 65bd 20df 3d40 3e17 53bb
00000090: 1b53 0741 57ba d33e 870c efbf b3de 5cbc
000000a0: 6bcd a4c0 2c1e 7ebc a025 733e 2d5f 893f
000000b0: f76d ce40 4c74 e23c 86b3 8040 af7c 053b
000000c0: e898 f3c0 f538 333c af08 71c0 d44b b6be
000000d0: 3cff 2dc1 9ca9 133b 6da7 9dc0 b0a8 143d
000000e0: 1126 ebc0 dfc6 30be f1e9 65c0 3ecf 0e3e
000000f0: 3a6f ee40 d150 ab3c c873 33be d22c c1bb
00000100: ac0d 17bf b626 263d ae10 1ec0 adb0 d43d
00000110: 0293 b140 2254 80be 070f 7740 b543 9fbd
00000120: f0f1 ff40 2936 be3d fb01 40bf ca11 5bbe
00000130: 22f2 b7c0 2fad c6bd c2f1 4a40 9876 a8bd
00000140: 3ed5 c740 a261 b33b b4fb 83c0 72e4 4ebc
00000150: f53e 6441 c033 6f3d cb6d 913f c2d6 eebb
00000160: 2343 19c1 1375 323e cc4a 0f3e c115 303c
00000170: eab2 1041 a2c7 eb3d 3a0e 3dc0 34e6 83bb
00000180: 5a2c 3941 b4f6 61bd bc50 4b3f d8a9 ac3b
00000190: 5999 7e41 6392 023b 9d0d e63f 6249 47bc
000001a0: 7262 64c0 0e7a 833d 5884 d5bf aae6 b73b
000001b0: 9808 a0c0 ee40 06bd ea56 4141 27cd 5fbc
000001c0: 0e44 8340 e02c f13d fe31 e63f 7015 8fbb
000001d0: e91f 9d40 dc87 c63c 80f6 1840 3708 083f
000001e0: 16dc 4440 ee3e 9dbd db9a f53e ecd8 0d3d
000001f0: 8c97 5041 ee6d 43bd 1b6c dd3f 3454 6dbc
00000200: 12a8 c740 c822 b03b a1ad 2040 f24b 5e3f
00000210: 59e6 3041 6b06 893d a21c 06c0 776d c23c
00000220: 2d31 3cc0 9898 903d 27d4 bdc0 fc45 f53c
00000230: d449 53c0 7945 01bf 5402 ee3f bbea 3d39
00000240: 1cdf 2641 d10c 033d d616 563f b358 a53a
00000250: c3db 1240 af78 073e 492a 9bc0 1dd1 a83c
00000260: 64a4 17c0 243d ebbc acad cc3f 22ea a03e
00000270: 6803 bcc0 2f04 25be 5f70 c440 41da f4bb
00000280: c0f8 f340 615a 393d e33e 25c0 d815 28bb
00000290: 3249 e840 377c b7be 5016 943f 1a6a 1abc
000002a0: fb43 aec0 40c4 293d 33a3 37c1 db4a 5dbb
000002b0: 68ea 71c0 f471 2fbd 7ae1 1740 ee76 843d
000002c0: f39c cbc0 c5ba 483d 0d6c 9bc0 4f6f de3d
000002d0: 75d4 72c0 d00e b7bd 6fd8 a1c0 a9b7 323d
000002e0: c761 dc40 c9c4 ac3c a2c7 313f 2c06 2e3d
000002f0: 4df2 4741 4a75 863d 2aba 903f a4c0 083c
00000300: 0a69 5fc0 d98d 36bd 5f23 0a41 5a49 683d
00000310: 771a 9440 8dd8 98bd 9755 07c0 a031 e03d
00000320: a627 0741 2164 e6bc 0ed6 dd40 69ae 823b
00000330: a0e7 4cc0 0d2f a53d 85f9 a33d b74f 843a
00000340: 5013 4e41 43bf 343d fe67 923f fd93 273c
00000350: 66d6 1c41 b196 763d 676a 3ac0 5bce 973c
00000360: 2a41 98c0 c1fc 44bc 08f0 a6bf ecfb 20bf
00000370: b848 79c0 0e19 193d cf06 053f 3640 df3b
00000380: 8d44 4c41 bbed 7c3d 78b4 82bf 8a8f c23c
00000390: 69cb a33f 6809 30bc c085 1ac1 3b3a 303b
000003a0: 2555 a2c0 3638 403e 3d6b 7c3f 09f4 083d
000003b0: 55fe 8340 23de 533e 9f49 c6c0 65a1 4b3e
000003c0: 54c1 3641 5466 363d efa4 54bf 512b 87bc
000003d0: 15d6 4b3f 56ac 76bd 35c1 14c0 58ee 8e3c
000003e0: 170b f040 b6cd 2abc ed51 043f 379f 993c
000003f0: c365 2941 7432 b13e d6b5 92bf d60c 243d

sequential.0.bias f4 [128]
2.8356085 4.9464054 -2.471513 -2.8323996 3.4505208 0.3215512 6.5599637 -10.245422
-4.449887 2.5693078 -0.30514148 9.708565 -0.16164307 -1.5954833 0.55611837 2.236356
0.55162644 4.943484 3.7020395 -13.2039585 3.064061 -0.24369088 1.3144302 -10.731606
-3.5990055 -3.240022 1.7292187 -4.304158 -9.021649 -3.4152672 6.0689673 0.3404804
-0.25668326 0.81003106 5.7925797 -4.645026 1.8311601 -12.059816 -8.541297 5.630508
-6.990429 5.9360685 0.26561004 -6.270557 2.3623526 -11.02584 9.364205 -5.6630096
-8.567888 -1.2226298 -5.024617 -10.743486 1.9970098 -0.49933234 -0.037565544 1.4543347
-9.067138 2.6188052 -1.1971625 5.6998005 1.0290929 9.716087 3.7712474 0.14631791
-2.5554032 -0.5802593 -6.1406517 -3.643616 6.0025373 4.3316345 1.6370965 -4.5512066
1.3209928 0.003917973 3.3571582 -0.38137117 -0.69789076 -0.75786763 -9.881619 6.091396
-5.0066113 6.072245 -7.321845 -3.327187 -2.044622 -0.907397 -2.4308922 -5.0564337
-1.8469305 -2.9852276 3.978996 0.13466668 -2.9177537 11.394637 8.509682 0.41269144
-2.090735 5.0171824 1.1768703 5.818093 -8.192133 2.7775266 5.182144 -2.3937585
-6.9831915 0.03021811 -9.801959 3.9470165 -1.0674075 -0.10238783 5.1130576 -0.6145358
-9.307009 -5.204055 -0.29875538 10.634766 -7.050464 -11.5503645 -2.239278 2.1193452
-0.0021735828 0.107441194 7.049448 -11.229945 2.265131 0.2822746 -14.374355 0.16197348
00000000: 9c7a 3540 f448 9e40 452d 1ec0 0946 35c0
00000010: 55d5 5c40 5ca2 a43e 39eb d140 40ed 23c1
00000020: 7965 8ec0 8a6f 2440 813b 9cbe 4856 1b41
00000030: c385 25be cc38 ccbf c65d 0e3f 7520 0f40
00000040: 6437 0d3f 0531 9e40 37ee 6c40 6a43 53c1
00000050: 9319 4440 1a8a 79be 403f a83f a8b4 2bc1
00000060: 1b56 66c0 855c 4fc0 0a57 dd3f aabb 89c0
00000070: ad58 10c1 bd93 5ac0 fb34 c240 7253 ae3e
00000080: fd6b 83be 325e 4f3f d05c b940 0ea4 94c0
00000090: 7463 ea3f 02f5 40c1 27a9 08c1 1f2d b440
000000a0: 98b1 dfc0 46f4 bd40 0afe 873e 67a8 c8c0
000000b0: c930 1740 d769 30c1 c9d3 1541 6037 b5c0
000000c0: 1216 09c1 227f 9cbf aac9 a0c0 52e5 2bc1
000000d0: 049e ff3f 7da8 ffbe 54de 19bd a427 ba3f
000000e0: ff12 11c1 819a 2740 9f3c 99bf c464 b640
000000f0: 51b9 833f 1875 1b41 1e5c 7140 5dd4 153e
00000100: ba8b 23c0 e08b 14bf 3880 c4c0 0131 69c0
00000110: c914 c040 c09c 8a40 618c d13f 7ca3 91c0
00000120: 4b16 a93f 5762 803b aedb 5640 1543 c3be
00000130: f8a8 32bf 9d03 42bf 1d1b 1ec1 b7ec c240
00000140: 2936 a0c0 d54f c240 8e4c eac0 a2f0 54c0
00000150: 16db 02c0 2b4b 68bf bd93 1bc0 4ece a1c0
00000160: 3868 ecbf f80d 3fc0 dfa7 7e40 10e6 093e
00000170: 7abc 3ac0 6f50 3641 a827 0841 4b4c d33e
00000180: 9ace 05c0 c28c a040 b0a3 963f d12d ba40
00000190: fa12 03c1 ffc2 3140 20d4 a540 5733 19c0
000001a0: 4e76 dfc0 f88b f73c d3d4 1cc1 eb9b 7c40
000001b0: cfa0 88bf b6b0 d1bd 2b9e a340 3852 1dbf
000001c0: 82e9 14c1 9e87 a6c0 77f6 98be 0028 2a41
000001d0: 679d e1c0 4bce 38c1 5550 0fc0 5aa3 0740
000001e0: ab72 0ebb 210a dc3d 1495 e140 dbad 33c1
000001f0: e8f7 1040 4c86 903e 5cfd 65c1 60dc 253e

sequential.2.weight f4 [128, 128]
-0.907907 -1.6177113 -2.7930799 -0.4012319 -0.11607315 0.6087267 0.7101095 -4.6772466
-1.4162031 -1.1158376 1.2701049 -0.4697078 -9.805622 -2.4454792 -0.10737477 -1.0596424
-1.3371165 0.2661146 -2.1983309 -0.9259496 -2.011521 -3.519786 3.9454513 -1.8430979
0.2006301 -1.5578116 0.8973631 -0.20400186 0.99789435 -4.5341754 0.6114361 -0.6183381
-0.6532081 -0.34343776 0.4583945 -0.8091029 -4.4757166 1.0667536 -1.7591203 1.2213899
1.0988618 -0.08249115 -1.0617826 -0.776717 0.088609494 -2.428264 -1.0786492 -0.6100207
-0.0812674 -0.059386525 -0.10105292 0.6965765 -3.7475638 -0.49499443 -8.876471 -0.11806588
-0.14933477 -1.5621787 0.47331366 0.2735972 -1.9631039 0.8253753 -2.9212487 -0.010165674
-0.28954917 -0.7589605 -1.9323528 3.3926322 0.06802128 -0.55193645 0.71681786 1.5944446
-1.3693358 -6.634528 0.7941904 -4.765806 -2.0874887 0.79438347 -1.1174493 1.3058335
-0.58372533 -0.337455 -1.8348721 -1.5060263 1.1928681 -1.0080343 -1.8487318 -0.64738894
-1.6046243 0.6015842 -1.0271349 0.46907884 0.15496188 0.3434054 1.0216753 1.1533468
2.480435 0.31448987 -1.6839678 2.5119078 -2.393613 0.1783631 -0.8993562 -0.63081443
-5.3059397 0.29161814 1.3087196 -0.27334532 -0.41833514 0.107621394 0.5374976 -0.54429716
0.9866643 -1.753642 1.6795138 0.050634857 0.4688346 -0.93587106 -1.9234102 -0.4061405
-0.111938976 -0.7006834 0.15104371 -0.15097615 0.30058652 0.46172434 -1.6511823 -0.04619192
0.59843767 0.6879315 -1.8912065 -0.072978556 0.9291457 -0.25367525 -0.0655501 -1.2465265
-1.4831253 -1.7588838 -0.2294882 -0.28337404 0.38935888 -0.14134222 -0.011661247 1.0004036
-0.31211287 -0.8914451 -0.96081156 -1.0120103 -0.59136885 -2.682503 0.8506237 -0.24838936
-0.99268687 -0.38760203 -0.7000148 -0.59939337 -0.25647762 -1.5533152 -0.71242326 -0.67263186
0.7353291 0.079410724 0.30153143 -0.44353953 0.049512476 -1.0908166 -0.6008032 0.36134562
-0.8985375 -0.11298562 0.0676226 -0.004077153 0.5421071 -0.7712185 -0.49235088 0.23498142
-1.6821737 0.6673378 0.015968444 -0.5603903 0.6463887 -0.39202824 0.6651028 -0.119366586
-4.404052 -0.38289127 -1.8682475 -0.40810728 -0.04977941 0.23185863 -0.16882664 -3.77671
0.69319093 -0.5618435 -0.5455529 0.17532583 -0.13269424 0.49701315 -1.8393353 -1.1336751
0.32812372 -2.101067 0.21038964 0.33593678 -2.1729102 -1.0300405 -0.36615896 0.16581225
-0.58351755 -1.0949335 -1.2763467 0.50157803 -1.3786536 -0.9750279 0.034512192 -0.0030131207
0.23728317 -1.3160198 -0.25803608 0.022028938 0.98337454 -0.15798202 0.95011765 1.064799
-3.317825 0.68600225 -0.30772468 -0.43642756 1.0375113 1.6283759 -0.59480584 -0.31327987
0.11847144 -0.07588659 -0.9411764 0.248011 -0.85942984 -0.32605842 0.3642287 -0.75619304
-0.5692822 -0.9241298 -1.2787423 -0.6370187 -1.287875 0.120082915 0.27858067 0.27263924
0.31004167 0.28530794 -0.29615822 -1.3960757 -0.16083035 -0.09879015 -1.0945104 0.1976133
00000000: 986c 68bf 2a11 cfbf d2c1 32c0 456e cdbe
00000010: c2b7 edbd 83d5 1b3f bcc9 353f 01ac 95c0
00000020: 2546 b5bf c4d3 8ebf cc92 a23f 8a7d f0be
00000030: d4e3 1cc1 bb82 1cc0 4ee7 dbbd 5da2 87bf
00000040: a226 abbf 2c40 883e 74b1 0cc0 080b 6dbf
00000050: c3bc 00c0 2c44 61c0 4682 7c40 a2ea ebbf
00000060: fa71 4d3e 5f66 c7bf 97b9 653f dde5 50be
00000070: 0176 7f3f f717 91c0 1487 1c3f 684b 1ebf
00000080: a538 27bf 13d7 afbe afb2 ea3e 5e21 4fbf
00000090: 1239 8fc0 628b 883f db2a e1bf 8156 9c3f
000000a0: 81a7 8c3f 1ff1 a8bd 7ee8 87bf edd6 46bf
000000b0: e578 b53d ad68 1bc0 2d11 8abf 512a 1cbf
000000c0: 866f a6bd 493f 73bd d5f4 cebd d652 323f
000000d0: 16d8 6fc0 e96f fdbe 0606 0ec1 86cc f1bd
000000e0: 37eb 18be 79f5 c7bf 2b56 f23e ef14 8c3e
000000f0: fd46 fbbf cc4b 533f bdf5 3ac0 ed8d 26bc
00000100: ca3f 94be 3c4b 42bf 5657 f7bf e320 5940
00000110: be4e 8b3d b54b 0dbf 6081 373f c316 cc3f
00000120: 6546 afbf 0e4e d4c0 1050 4b3f 7c81 98c0
00000130: 6a99 05c0 b75c 4b3f 9408 8fbf 8d25 a73f
00000140: 066f 15bf e7c6 acbe 17dd eabf 78c5 c0bf
00000150: e7af 983f 4507 81bf 3ea3 ecbf 48bb 25bf
00000160: 5464 cdbf 6c01 1a3f 2879 83bf 1a2b f03e
00000170: 54ae 1e3e d5d2 af3e 42c6 823f dea0 933f
00000180: 72bf 1e40 d104 a13e 428c d7bf 19c3 2040
00000190: f530 19c0 d1a4 363e 353c 66bf 0e7d 21bf
000001a0: 42ca a9c0 f94e 953e 2084 a73f ebf3 8bbe
000001b0: 0630 d6be 9b68 dc3d 7199 093f 0f57 0bbf
000001c0: 0896 7c3f 5777 e0bf 4ffa d63f 7f66 4f3d
000001d0: 170b f03e 3f95 6fbf 4e32 f6bf a6f1 cfbe
000001e0: 4340 e5bd fd5f 33bf 34ab 1a3e 7e99 1abe
000001f0: 7ae6 993e 2267 ec3e f159 d3bf bd33 3dbd
00000200: 3633 193f 471c 303f 0e13 f2bf c875 95bd
00000210: 7edc 6d3f b9e1 81be 213f 86bd 2e8e 9fbf
00000220: 0dd7 bdbf 1b23 e1bf f4fe 6abe 6716 91be
00000230: 0c5a c73e 04bc 10be d10e 3fbc 3a0d 803f
00000240: 42cd 9fbe bf35 64bf bff7 75bf 8e89 81bf
00000250: f363 17bf 21ae 2bc0 7ac2 593f c859 7ebe
00000260: ba20 7ebf c673 c6be 2c34 33bf d871 19bf
00000270: 0951 83be 08d3 c6bf 5f61 36bf 9a31 2cbf
00000280: 873e 3c3f 17a2 a23d 5462 9a3e 9d17 e3be
00000290: 98cd 4a3d e19f 8bbf 3dce 19bf 4b02 b93e
000002a0: 8e06 66bf 0165 e7bd b87d 8a3d a399 85bb
000002b0: 88c7 0a3f 936e 45bf 6a15 fcbe f89e 703e
000002c0: 7851 d7bf a6d6 2a3f 41d0 823c bd75 0fbf
000002d0: bb79 253f edb7 c8be 2d44 2a3f 7876 f4bd
000002e0: feed 8cc0 530a c4be bc22 efbf 70f3 d0be
000002f0: 7fe5 4bbd 596c 6d3e e4e0 2cbe 9eb5 71c0
00000300: f674 313f fad4 0fbf 5ba9 0bbf 9d88 333e
00000310: 00e1 07be 8278 fe3e 576f ebbf 441c 91bf
00000320: d5ff a73e e277 06c0 6270 573e e8ff ab3e
00000330: f610 0bc0 5ed8 83bf 3079 bbbe b0ca 293e
00000340: 6861 15bf c826 8cbf 545f a3bf 6b67 003f
00000350: b977 b0bf 6e9b 79bf a85c 0d3d c777 45bb
00000360: 5cfa 723e 5673 a8bf 4e1d 84be 0876 b43c
00000370: 6fbe 7b3f 0ac6 21be e93a 733f 554b 883f
00000380: 3f57 54c0 d89d 2f3f 178e 9dbe 6f73 dfbe
00000390: 2ccd 843f 9f6e d03f 3245 18bf 3866 a0be
000003a0: 28a1 f23d 6e6a 9bbd f0f0 70bf 98f6 7d3e
000003b0: 9803 5cbf 21f1 a6be 2f7c ba3e de95 41bf
000003c0: 7abc 11bf c593 6cbf d4ad a3bf a813 23bf
000003d0: 17d9 a4bf 08ee f53d 20a2 8e3e 5f97 8b3e
000003e0: c8bd 9e3e e213 923e 0da2 97be 9cb2 b2bf
000003f0: b6b0 24be 7d52 cabd eb18 8cbf 245b 4a3e

sequential.2.bias f4 [128]
2.4312425 1.2923038 2.1824567 2.5649672 0.72794634 -0.06402172 0.01566245 0.77534044
-1.0989794 -0.07335125 1.5683312 0.76895386 1.7694571 -0.87320477 -1.1698741 -0.366542
1.1060027 2.5292585 -6.3957906 0.061868805 -0.7415582 1.3447552 1.7628173 1.9842831
2.5299933 2.3752842 -1.0944803 -0.06579623 -1.1946815 1.9139833 -0.1199702 -0.03072282
1.5688338 1.5221584 -0.5196054 -0.9923804 1.2045561 2.3483624 0.076222025 4.0147223
0.8161798 4.096116 0.8881565 2.3448255 1.7428123 1.1050372 0.4240623 -0.8665943
1.9449254 1.0238332 -0.48032707 -0.047986265 -0.039281458 0.7026507 1.5716118 2.077932
1.5975919 -0.017565142 0.6833415 -2.0925176 2.0627468 0.3893632 -0.06561872 1.0177038
3.986344 -0.037624184 -0.06928604 0.29815644 1.4995861 -0.07162545 0.64700544 -1.2929884
2.461491 1.5833799 -0.0080256555 2.6460993 1.7151846 0.5453178 -0.053114217 -0.045732785
-0.06814207 -0.03510433 -0.0034367684 0.13373317 -1.9622754 -6.8783903 -0.029816095 2.9160416
-0.07543031 0.51219755 2.263562 1.9982357 1.1612114 2.1270394 0.07163766 0.75929224
0.83546704 -0.07064958 0.6644161 0.899007 1.7126812 0.8084694 0.061043356 0.46818802
0.60554266 1.906338 0.43580237 -0.19374199 -0.02591733 -5.9890547 0.48114842 -5.557488
-1.5282773 0.1659355 2.8136694 0.41421908 2.4463496 -0.031356767 -0.038235273 -0.11760778
0.56847197 1.8029732 0.8130188 0.88097256 -0.025293488 0.9774608 0.008579258 -1.8257459
00000000: 7a99 1b40 366a a53f 5fad 0b40 6c28 2440
00000010: b15a 3a3f d21d 83bd 8a4e 803c b67c 463f
00000020: 5bab 8cbf 2e39 96bd 14bf c83f 29da 443f
00000030: 927d e23f 598a 5fbf 6fbe 95bf 65ab bbbe
00000040: 7f91 8d3f 5fdf 2140 51aa ccc0 256a 7d3d
00000050: c2d6 3dbf f020 ac3f ffa3 e13f fdfc fd3f
00000060: 69eb 2140 a804 1840 ee17 8cbf 2dc0 86bd
00000070: 53eb 98bf 68fd f43f f0b2 f5bd 6cae fbbc
00000080: 8ccf c83f 16d6 c23f dc04 05bf a40c 7ebf
00000090: e52e 9a3f 924b 1640 4b1a 9c3d 9b78 8040
000000a0: 29f1 503f 6213 8340 395e 633f 9f11 1640
000000b0: 7914 df3f dc71 8d3f b21e d93e 20d9 5dbf
000000c0: 51f3 f83f f70c 833f 6eed f5be 3f8d 44bd
000000d0: 98e5 20bd ebe0 333f 932a c93f d6fc 0440
000000e0: e47d cc3f c6e4 8fbc 78ef 2e3f cfeb 05c0
000000f0: 0b04 0440 9d5a c73e 1c63 86bd 1e44 823f
00000100: 4320 7f40 d11b 1abd d7e5 8dbd f6a7 983e
00000110: 70f2 bf3f 5db0 92bd 26a2 253f a580 a5bf
00000120: 1289 1d40 31ac ca3f 0a7e 03bc b159 2940
00000130: 2b8b db3f f399 0b3f 4b8e 59bd 4d52 3bbd
00000140: 128e 8bbd 8fc9 0fbd 683b 61bb 59f1 083e
00000150: d72b fbbf c61b dcc0 e240 f4bc 6da0 3a40
00000160: 357b 9abd 611f 033f 33de 1040 30c6 ff3f
00000170: 93a2 943f 6a21 0840 c4b6 923d fa60 423f
00000180: 2be1 553f bab0 90bd 2c17 2a3f 5325 663f
00000190: 2339 db3f daf7 4e3f 9908 7a3d 57b6 ef3e
000001a0: d804 1b3f e202 f43f 7d21 df3e 4d64 46be
000001b0: 9550 d4bc 56a6 bfc0 1659 f63e f1d6 b1c0
000001c0: 979e c3bf ffea 293e 2913 3440 8614 d43e
000001d0: fe90 1c40 f46f 00bd 979c 1cbd 59dc f0bd
000001e0: 6187 113f d3c7 e63f 0022 503f 6b87 613f
000001f0: 4a34 cfbc df3a 7a3f 0490 0c3c 0bb2 e9bf

sequential.4.weight f4 [1, 128]
0.08132878 0.4804629 -0.8178319 -0.22680333 6.843624 -0.08844167 -0.8092337 0.758627
-0.44097635 0.14688133 0.6588828 -0.0008211084 3.6553533 -0.58974826 -0.9178649 1.9018792
1.2012085 0.91420186 8.697563 0.08495245 -0.32864088 -0.53939575 0.6433917 -0.4934643
0.87046504 2.515812 5.7720647 0.0036999835 0.4824991 -0.31679836 -0.11278076 -0.022548439
-0.58328986 -0.8259266 -0.43950945 -0.44246602 -1.3060281 -1.2616099 0.047751732 0.33649966
-0.64286464 0.8527915 0.31526893 -0.9760658 -1.1782892 -0.24602632 1.2659527 2.3509934
-2.5145316 1.7538457 2.2141325 -0.012233173 -0.040239416 -0.021852275 -0.9103834 -1.2760471
1.4701494 0.094657734 0.02539524 -0.9936664 -0.5925944 0.030582793 0.058281723 -0.032765545
-0.91502655 0.19053179 0.011686945 -0.80836785 -0.27636606 0.021540862 -0.22848926 5.6294336
-0.78484005 0.88832504 0.0468166 -1.062257 0.706876 1.1839472 -0.06589217 -0.04465176
0.12006796 -0.15435497 -0.007108858 -0.003671159 5.03041 7.951556 0.01406043 0.65423185
-0.044360176 0.33673227 2.2325613 -0.7262803 -0.95972764 -0.40855137 0.27932104 -1.4291241
-0.33830997 -0.040738422 4.5869536 -0.69384736 1.6074405 -0.007165666 0.037659544 -0.9477731
1.0959357 -0.48139834 0.0022108662 0.20579973 0.0017100016 8.104047 -0.012711959 -1.587232
3.6758018 0.11588063 0.5092945 -0.6496443 1.3960451 -0.115086615 0.16082636 0.35687047
0.30285692 0.24770454 0.83100134 -0.13631934 -0.1610623 -0.78057265 -0.006842692 -0.38733783
00000000: b48f a63d 3cff f53e 6e5d 51bf 223f 68be
00000010: f8fe da40 e820 b5bd f129 4fbf 6135 423f
00000020: a7c7 e1be 0f68 163e 8bac 283f a73f 57ba
00000030: 4ff1 6940 bef9 16bf 32f9 6abf c770 f33f
00000040: 33c1 993f 2209 6a3f 3829 0b41 8dfb ad3d
00000050: 9e43 a8be d715 0abf 52b5 243f 5aa7 fcbe
00000060: ccd6 5e3f 1003 2140 c1b4 b840 6c7b 723b
00000070: 1f0a f73e 6533 a2be 99f9 e6bd 81b7 b8bc
00000080: 7c52 15bf ed6f 53bf 6207 e1be e88a e2be
00000090: ee2b a7bf 6f7c a1bf 5297 433d af49 ac3e
000000a0: c792 24bf 8b50 5a3f ee6a a13e 73df 79bf
000000b0: 2ed2 96bf 53ee 7bbe bd0a a23f ad76 1640
000000c0: 16ee 20c0 047e e03f 59b4 0d40 a56d 48bc
000000d0: 16d2 24bd 8b03 b3bc e30e 69bf 8355 a3bf
000000e0: db2d bc3f eadb c13d ae09 d03c ec60 7ebf
000000f0: 44b4 17bf c488 fa3c d1b8 6e3d 2a35 06bd
00000100: 2e3f 6abf c41a 433e 9a7a 3f3c 32f1 4ebf
00000110: da7f 8dbe 7676 b03c 17f9 69be 5224 b440
00000120: 47eb 48bf 4569 633f c3c2 3f3d 0af8 87bf
00000130: d3f5 343f 958b 973f 79f2 86bd c4e4 36bd
00000140: 31e6 f53d 3b0f 1ebe 6cf1 e8bb d497 70bb
00000150: 1ef9 a040 2673 fe40 b85d 663c bd7b 273f
00000160: 04b3 35bd 2c68 ac3e 49e2 0e40 81ed 39bf
00000170: b6b0 75bf a52d d1be 2b03 8f3e 8aed b6bf
00000180: f736 adbe 55dd 26bd 53c8 9240 fb9f 31bf
00000190: 9cc0 cd3f f7cd eabb e540 1a3d 42a1 72bf
000001a0: 9f47 8c3f d879 f6be 2ee4 103b 2abd 523e
000001b0: 2222 e03a 2daa 0141 d245 50bc 6b2a cbbf
000001c0: 5640 6b40 d352 ed3d 2061 023f 174f 26bf
000001d0: 9bb1 b23f 88b2 ebbd aaaf 243e bab7 b63e
000001e0: 1010 9b3e 42a6 7d3e 81bc 543f 4c97 0bbe
000001f0: 84ed 24be 9cd3 47bf a938 e0bb 2551 c6be
