S2R_platform/policys/model_action.pth (torch, 5818 bytes, 4 tensors)

fc_state.0.weight f4 [128, 3]
0	0x3f0c3a38	0.54776335
1	0xbc435225	-0.01192144
2	0xbe1a6233	-0.15076523
3	0xbeb4b229	-0.35292175
4	0x3d0b33a2	0.033984788
5	0xbf394a65	-0.7237914
6	0xbe86e34f	-0.26345298
7	0xbdab8e33	-0.08376732
8	0xbd5ad4fa	-0.053425767
9	0x3ed207e6	0.4102165
10	0x3cb94219	0.022614526
11	0x3e518bc1	0.20463468
12	0xbf41acbd	-0.756542
13	0xbdaf90a2	-0.085725084
14	0xbde5849b	-0.11206933
15	0xbf2e1bd3	-0.68011206
16	0xba902019	-0.0010995894
17	0xbf159ace	-0.5843934
18	0xbdfd4d0d	-0.12368212
19	0xbc75a7c2	-0.01499361
20	0xbef9adb4	-0.48765337
21	0x3e8ebf6a	0.27880412
22	0xbaf8e9d4	-0.0018990585
23	0x3ec465b0	0.3835883
24	0xbff34cfd	-1.900787
25	0x3d888107	0.06665235
26	0x3e68e89f	0.22744988
27	0x3df0a786	0.117507026
28	0xbda4933b	-0.080358945
29	0x3dce80f0	0.100831866
30	0xbcc6c654	-0.024264492
31	0x3d473ea9	0.04864374
32	0xbe1d0af2	-0.15336207
33	0x3f54bace	0.8309754
34	0x3d21fb44	0.039546266
35	0xbd8cc76a	-0.06873973
36	0xbc1cebb3	-0.009577679
37	0xbd983d11	-0.074335225
38	0x3e15c5a6	0.14626178
39	0xbf956479	-1.1671287
40	0x3c189fd2	0.009315448
41	0xbe6a6473	-0.22889881
42	0x3ea61e31	0.3244491
43	0xbd9ec8d3	-0.07753148
44	0x3f238432	0.6387359
45	0xbe1488bc	-0.14505285
46	0x3a8314f7	0.0010000755
47	0xbee6a88a	-0.4505046
48	0x3e1d5f79	0.15368451
49	0x3d13b4f5	0.036061246
50	0xbea34c38	-0.31894088
51	0xbc746d95	-0.0149187045
52	0x3e345f75	0.17614539
53	0xbd125c58	-0.035732597
54	0xbf4b3b19	-0.7938705
55	0xbe1a17a8	-0.15048087
56	0x3e33bf82	0.17553523
57	0x3f49b77e	0.7879561
58	0x3d2ac866	0.04169502
59	0xbfba4e28	-1.4555101
60	0xbea71626	-0.32634085
61	0xbe00c911	-0.12576701
62	0x3ebe6ff4	0.37194788
63	0x3f555b99	0.8334289
64	0xbd5de47c	-0.054172978
65	0x3ef11d8c	0.47092855
66	0xbe8f872e	-0.2803282
67	0x3cf21e84	0.029555567
68	0xbe73dc70	-0.23814559
69	0xbecdf40a	-0.4022525
70	0x3e101b12	0.14072827
71	0xbe82711d	-0.25476924
72	0xbe2108bb	-0.15725987
73	0xbdb8c9dd	-0.09022877
74	0x3d8cf1f8	0.068820894
75	0xbe69e1fa	-0.2284011
76	0xbda198d5	-0.078904785
77	0xbec0a6ca	-0.3762725
78	0xbe1b3e5f	-0.15160511
79	0xbdcd7037	-0.10031169
80	0xbe4b98e3	-0.1988254
81	0xbe14bd2e	-0.14525291
82	0xbe8720a8	-0.26392102
83	0xbe38d429	-0.18049683
84	0x3d5369a5	0.051614422
85	0xba429a30	-0.00074234884
86	0x3e9c982a	0.30584842
87	0x3eacc9b7	0.33747646
88	0x3df95cb0	0.12175882
89	0xbdbecc60	-0.09316325
90	0x3f1447d6	0.5792211
91	0x3d35dcc9	0.04440001
92	0xbe1d9ad2	-0.1539109
93	0xbe5a11b9	-0.21295823
94	0x3d383a1e	0.0449773
95	0xbf258be5	-0.6466659
96	0xbe0bcdf9	-0.13652791
97	0xbe0c4b0e	-0.13700506
98	0xbd801f41	-0.06255961
99	0xbe6f6a65	-0.2338043
100	0xbe2e075d	-0.16994996
101	0xbd7a38cf	-0.061089333
102	0x3d9e3697	0.07725256
103	0x3e547fc5	0.20751865
104	0xbc213fda	-0.009841884
105	0xbe8c7474	-0.27432597
106	0xbd24fe13	-0.040281367
107	0xbeff5e93	-0.49876842
108	0xbe608c1b	-0.21928446
109	0xbbdfbdba	-0.006828037
110	0xbeee96c0	-0.46599388
111	0x3ed4f32c	0.41591775
112	0x3db769fc	0.08955762
113	0x3e213908	0.15744412
114	0x3e4909c9	0.19632639
115	0x3cee6aef	0.029103724
116	0x3df4bdf9	0.11950297
117	0x3efcc357	0.49367782
118	0x3d0ad0b1	0.03389043
119	0xbfb34b35	-1.4007326
120	0x3e039ab7	0.12851988
121	0xbdeab954	-0.1146113
122	0xbe657cbc	-0.22410864
123	0xbe5262c7	-0.20545493
124	0x3d402fa4	0.046920434
125	0xbea2c55d	-0.317912
126	0xbec492d6	-0.38393277
127	0x3da4bee3	0.08044221
128	0xbccd2353	-0.025041258
129	0xbd863726	-0.065534875
130	0x3e21fef4	0.15819913
131	0xbe843c9c	-0.2582749
132	0xbdebad75	-0.11507694
133	0x3e31d7fa	0.17367545
134	0xbc0dea1c	-0.008661773
135	0x3d09b018	0.0336152
136	0xbd0cac38	-0.034343928
137	0xbf088b13	-0.5333721
138	0x3c78b947	0.015180892
139	0xb920ad24	-0.00015323289
140	0xbf555732	-0.83336174
141	0x3ca7937e	0.020456072
142	0xbdcca409	-0.09992225
143	0x3e82e2c1	0.25563625
144	0xbe07e7c5	-0.13272007
145	0x3e06deaf	0.13170885
146	0x3e1e9108	0.15485013
147	0xbf512113	-0.8169109
148	0xbe20f811	-0.1571963
149	0x3d2bb7bc	0.04192327
150	0x3e9f53c1	0.31118587
151	0xbd8c0677	-0.068371706
152	0x3e984985	0.2974359
153	0x3e3456b4	0.176112
154	0x3e3889ec	0.18021363
155	0xbe050fef	-0.1299436
156	0xbe64c033	-0.22338943
157	0xbe11b438	-0.14228904
158	0xbd9d26fd	-0.07673452
159	0x3da43b46	0.08019118
160	0x3891bb97	6.94908e-05
161	0xbf204ab1	-0.6261397
162	0x3e90179f	0.2814302
163	0x3e0a1e15	0.13488038
164	0x3e7f039e	0.24903724
165	0xbee24d7a	-0.44199735
166	0x3daac0ae	0.08337532
167	0xbeb618b3	-0.3556572
168	0x3f4189ac	0.75600696
169	0x3d1a3986	0.037652515
170	0x3cbb645d	0.022875005
171	0x3f9e5336	1.2369144
172	0x3d5b93c1	0.053607706
173	0x3e3c6cd6	0.18400893
174	0x3ee4ece8	0.44711995
175	0xbd179f4b	-0.037017148
176	0x3d766b74	0.06016107
177	0xbf269201	-0.65066534
178	0xbd87d620	-0.06632638
179	0xbeb7e854	-0.3591944
180	0xbf0e1651	-0.555028
181	0xbdfba46a	-0.12287219
182	0xbd80c795	-0.06288067
183	0x3f13f937	0.57802147
184	0x3d0f5937	0.03499719
185	0xbfb51211	-1.4146138
186	0x3e3cfa07	0.18454753
187	0x3d4d7006	0.050155662
188	0x3d372e5d	0.04472195
189	0x3de8e48a	0.11371715
190	0xbdddaa5a	-0.108235076
191	0xbec59c27	-0.38595697
192	0xbd2110ab	-0.039322536
193	0xbe1f0dc0	-0.15532589
194	0x3c2a22a8	0.010384239
195	0xbef7c951	-0.4839578
196	0x3d37237c	0.044711575
197	0xbe34391d	-0.17599912
198	0x3eac62ee	0.33669227
199	0x3e063df0	0.13109565
200	0xbdf3a9dc	-0.118976325
201	0xbd8a8447	-0.06763511
202	0xb9404cdf	-0.00018339184
203	0xbcec8ded	-0.02887627
204	0xbf06c48a	-0.52643645
205	0xba3973a9	-0.00070744246
206	0xbf291938	-0.66054106
207	0xbee7187a	-0.45135862
208	0xbdacefc0	-0.08444166
209	0x3dd4117a	0.10354896
210	0x3eb814e0	0.35953426
211	0xbdfbb90e	-0.12291156
212	0x3d0d3efe	0.034483902
213	0xbf00fb8f	-0.5038385
214	0xbdb0a5eb	-0.08625396
215	0xbca972b6	-0.020684581
216	0xbf005846	-0.50134695
217	0x3d906309	0.070501395
218	0xbe177a6f	-0.14792798
219	0xbe4182a7	-0.18897496
220	0xbe1add83	-0.15123563
221	0x3e496009	0.19665541
222	0xbe159334	-0.14606935
223	0xbd821183	-0.06350996
224	0xbea40615	-0.3203589
225	0xbef2447b	-0.4731787
226	0xbd8250f2	-0.06363095
227	0x3e2ab676	0.16671166
228	0xbc489aa2	-0.012243899
229	0x3c89292a	0.016743261
230	0xbf386042	-0.7202188
231	0x3dd9bfb1	0.10632265
232	0x3d315ec4	0.043303266
233	0x3e0b36af	0.13595079
234	0xbeb5bb82	-0.3549462
235	0x3d07f12a	0.033188976
236	0x3c35d1aa	0.011097351
237	0xbea0f72d	-0.3143858
238	0x3d517329	0.051135216
239	0xbe2d7788	-0.16940129
240	0x3dc461f1	0.09588993
241	0xb8f8a10c	-0.00011855559
242	0x3e908d88	0.2823298
243	0xbd4fbcf4	-0.05071731
244	0x3de1ead3	0.11031117
245	0x3e062fb8	0.13104141
246	0xbe68ed25	-0.22746713
247	0xbc48486a	-0.012224296
248	0xbf166131	-0.5874205
249	0x3a820abb	0.0009921411
250	0xb89b23dc	-7.397655e-05
251	0xbf19abe3	-0.60027903
252	0x3ea3b5f7	0.31974766
253	0x3980ce57	0.00024567798
254	0x3c3c6eeb	0.011501054
255	0xbfd42279	-1.657302

fc_state.0.bias f4 [128]
0	0xbe42f187	-0.19037448
1	0xbd77365c	-0.060354576
2	0xbe1a908a	-0.150942
3	0xbe186444	-0.14881998
4	0xbf0b8217	-0.54495376
5	0xbf513fa0	-0.8173771
6	0xbe887e4f	-0.26658866
7	0x3f424e04	0.7590029
8	0xbee6ab1f	-0.4505243
9	0xbefb6a70	-0.49104643
10	0xbc4fe3f3	-0.012688625
11	0xbf998c8c	-1.1996017
12	0xbf074bde	-0.5285014
13	0x3e952410	0.29129076
14	0xbeb18729	-0.34673432
15	0xbd0d1335	-0.034442145
16	0xbf4425c7	-0.76620144
17	0x3e504e6d	0.20342417
18	0xbeb3d1a4	-0.3512088
19	0xbf04e727	-0.5191521
20	0x3e4db1bc	0.20087332
21	0xbf04bdb1	-0.51851946
22	0x3d1b311a	0.037888624
23	0xbe05b746	-0.13058195
24	0xbf48b70e	-0.7840432
25	0xbeb60a11	-0.35554555
26	0x3e759587	0.23982821
27	0x3e3284cb	0.17433469
28	0xbf4e554f	-0.8059892
29	0xbd341312	-0.0439635
30	0x3f2ad06a	0.66724265
31	0xbe8f10ac	-0.27942407
32	0x3d67eb5e	0.056620948
33	0x3db97c0d	0.09056864
34	0xbca3bfd9	-0.019988941
35	0x3e8a45db	0.2700642
36	0xbf23e741	-0.6402474
37	0xbf03cffd	-0.5148924
38	0x3e8d80a9	0.27637222
39	0xbefec473	-0.49759254
40	0x3d3eab3d	0.046550024
41	0xbe3d5c87	-0.18492328
42	0xbe15cad3	-0.14628153
43	0xbcb83c33	-0.022489643
44	0x3e9b1abe	0.3029384
45	0xbf08e0e9	-0.53468186
46	0xbf3e3f31	-0.7431517
47	0xbf160700	-0.5860443
48	0x3e2ad088	0.16681111
49	0xbeb7f18e	-0.3592648
50	0xbf1fa3e7	-0.6235947
51	0x3d7688bb	0.06018899
52	0x3de82442	0.11335041
53	0xbf357f04	-0.70896935
54	0xbcf6784d	-0.03008666
55	0xbe289ddc	-0.16466469
56	0x3f0a0fc2	0.53930295
57	0xbe80281e	-0.25030607
58	0x3ec8d114	0.39222014
59	0xbf22d3e8	-0.63604593
60	0xbe3af053	-0.18255739
61	0xbf058b83	-0.52166003
62	0x3ef6d95d	0.4821271
63	0x3f01f53b	0.50764817
64	0xbdb54e10	-0.0885278
65	0xbd816303	-0.06317713
66	0xbd3d11b8	-0.046159476
67	0xbf26a813	-0.6510021
68	0xbf4eb56a	-0.80745566
69	0xbf3ea624	-0.7447226
70	0x3c9ff266	0.019524764
71	0xbf0e2519	-0.55525357
72	0xbd1704e1	-0.036869887
73	0x3c06fdd3	0.008239227
74	0xbec9ac24	-0.39389145
75	0xbf18eea1	-0.5973912
76	0xbe80fad9	-0.25191382
77	0x3ed30e76	0.4122197
78	0x3ddfdee6	0.109311864
79	0x3e4f6322	0.2025266
80	0xbf02b0cb	-0.51051015
81	0x3f009d08	0.5023961
82	0xbd13d549	-0.036092076
83	0x3ecc33a6	0.39883155
84	0xbfa6f80a	-1.3044446
85	0xbf3ca225	-0.7368491
86	0xbe9345af	-0.28764102
87	0xbef8b151	-0.48572782
88	0x3f0c8936	0.5489687
89	0xbf9cfa4b	-1.2263883
90	0xbf113d34	-0.56734014
91	0xbeac9dbb	-0.3371409
92	0xbd95e719	-0.07319469
93	0x3c454c2c	0.012042087
94	0xbf1a3fdf	-0.6025371
95	0x3da9f1f0	0.08298099
96	0xbf6a3905	-0.91493255
97	0x3e5713ed	0.21003695
98	0xbe9b5287	-0.303364
99	0x3d5ea1d4	0.05435355
100	0xbd77aa2a	-0.060465015
101	0xbf454775	-0.7706216
102	0x3a10e72f	0.0005527613
103	0xbefd9a56	-0.4953181
104	0x3f69a4c0	0.91267014
105	0x3f10ea08	0.56607103
106	0x3e9eb39e	0.30996412
107	0x3b8b6fe4	0.0042552818
108	0xbebd1677	-0.36931202
109	0x3ec41e1e	0.38304228
110	0x3da39877	0.07988065
111	0xbe1ae91d	-0.15127988
112	0x3d48223f	0.048860785
113	0x3f3cb129	0.73707825
114	0x3e17b5fe	0.14815518
115	0xbf33f5cb	-0.70296925
116	0xbe0e2383	-0.13880734
117	0x3f5eb0a5	0.8698829
118	0x3d18ea27	0.03733268
119	0xbdb3e356	-0.08783595
120	0x3e4ba191	0.19885851
121	0x3e092f0a	0.1339685
122	0x3f06977d	0.525749
123	0xbe10a6f8	-0.14126194
124	0xbf5accfc	-0.8546903
125	0xbf5da6fd	-0.8658293
126	0xbecdc0ad	-0.40186062
127	0x3ec19eaa	0.37816364

fc_mu.weight f4 [1, 128]
0	0xbdb590b8	-0.088654935
1	0xbe467a72	-0.19382647
2	0xbe2fb04a	-0.17157093
3	0x3e62213f	0.22082995
4	0xbdf9bdff	-0.12194442
5	0x3f12f451	0.5740405
6	0x3f0cc125	0.54982215
7	0xbe52094e	-0.20511362
8	0xbf8192de	-1.0122945
9	0x3e1d0ebc	0.15337652
10	0x3d8bdc5a	0.06829138
11	0x3f0a2a50	0.53970814
12	0x3e0b59df	0.13608502
13	0xbf6afad5	-0.9178899
14	0xbd894636	-0.06702845
15	0x3dfc4d58	0.1231944
16	0x3d078b75	0.03309198
17	0x3ddb67fa	0.10713191
18	0xbc44e989	-0.01201857
19	0xbf7de30e	-0.9917458
20	0xbe1f06ca	-0.15529934
21	0xbdc92a52	-0.09822525
22	0x3cfe52e0	0.031045377
23	0xbd8bddc2	-0.06829406
24	0x3e1645df	0.14675091
25	0xbe127b5c	-0.1430487
26	0x3db0ccba	0.086327985
27	0x3e3f469b	0.18679278
28	0x3e7877a1	0.24264385
29	0x3e34650f	0.17616676
30	0xbc42c163	-0.011886927
31	0xbe02df0c	-0.12780398
32	0xbe37b56c	-0.179403
33	0xbe42370f	-0.18966316
34	0xbdd16b6c	-0.10225567
35	0x3d3f2714	0.046668127
36	0xbe23c70f	-0.15993904
37	0x3d4e25e2	0.050329097
38	0x3d19892e	0.03748434
39	0xbf08b9b4	-0.5340836
40	0xbd8505c3	-0.064952396
41	0xbd23d8cc	-0.040001675
42	0xbe2ccf6b	-0.16875999
43	0xbe1ccf4c	-0.15313452
44	0x3db536f8	0.08848375
45	0xbe0b5afe	-0.1360893
46	0xbeecc30a	-0.46242553
47	0x3da2dde4	0.079524785
48	0x3d28c1e9	0.041200552
49	0xbc733383	-0.014843824
50	0x3f1800b9	0.593761
51	0x3e1fc706	0.15603265
52	0x3e0c935d	0.1372809
53	0xbee654d3	-0.4498659
54	0x3e5347fd	0.2063293
55	0xbe3017a3	-0.17196517
56	0xbb0c1b28	-0.002137849
57	0x3f631401	0.887024
58	0x3e947db4	0.29002154
59	0xbf0316ff	-0.51206964
60	0xbe40cf55	-0.18829091
61	0xbf8f5110	-1.1196613
62	0x3d532f1d	0.051558603
63	0x3d0af743	0.033927213
64	0xbe0bbee8	-0.13647044
65	0xbecdf060	-0.40222454
66	0x3e34cebd	0.1765699
67	0x3e4dcd79	0.20097913
68	0x3e5699e6	0.20957145
69	0xbef4a246	-0.47780055
70	0xbd883dda	-0.06652422
71	0xbe63920b	-0.2222368
72	0xbe9c0207	-0.30470297
73	0x3ddd2a80	0.10799122
74	0xbdd17d9b	-0.102290355
75	0x3e2cce11	0.16875483
76	0xbe19f8dd	-0.1503634
77	0x3da663ae	0.08124481
78	0x3d9c10a3	0.07620361
79	0x3defb131	0.117037185
80	0xbdf68447	-0.12036949
81	0x3dc15ded	0.09441743
82	0x3ea5f920	0.3241663
83	0xbeed0868	-0.46295476
84	0x4005f378	2.0929852
85	0xbf2e2791	-0.68029124
86	0x3f1f45b9	0.62215763
87	0xbde46e1b	-0.111538135
88	0x3d06d95a	0.032922126
89	0xbf19e659	-0.6011711
90	0x3f0876f0	0.53306484
91	0xbadb0603	-0.0016710166
92	0xbd52200e	-0.0513001
93	0xbd9df4b0	-0.07712686
94	0xbe031d4e	-0.12804148
95	0x3e585594	0.21126395
96	0xbd68c45e	-0.056827895
97	0x3ede1d6b	0.4338182
98	0x3e2bd090	0.16778779
99	0x3e0e1393	0.13874654
100	0xbe1a2cbc	-0.15056127
101	0x3d9d3b13	0.07677283
102	0x3e49d4e2	0.19710115
103	0x3e9ea320	0.3098383
104	0xbca9ae56	-0.020713013
105	0x3db78343	0.08960583
106	0x3e321a96	0.17392954
107	0xbf8176a5	-1.0114332
108	0xbc7ea330	-0.015541837
109	0x3de019de	0.10942434
110	0xbe16a6ef	-0.14712118
111	0x3e08f35f	0.13374089
112	0xbd677aee	-0.05651372
113	0xbc817ca6	-0.015806507
114	0xbe27433d	-0.16334243
115	0x3e3f17ac	0.18661374
116	0xbe098467	-0.13429414
117	0xbbc1f0b4	-0.0059185866
118	0x3e2d0c43	0.16899209
119	0x3ec033c1	0.37539485
120	0x3e035c2d	0.12828131
121	0x3d80ea5c	0.062947005
122	0xbe89b9e5	-0.2689964
123	0x3daeb56f	0.085306995
124	0xbf22ea4b	-0.6363875
125	0x3fc82141	1.5635148
126	0xbf543347	-0.82890743
127	0x3e8b76ec	0.27239168

fc_std.0.weight f4 [1, 128]
0	0xbdb8cc8c	-0.09023389
1	0xbe0e2301	-0.1388054
2	0x3d180806	0.037117027
3	0x3e88f55e	0.267497
4	0x3e33d44b	0.17561452
5	0xbec61d1b	-0.3869408
6	0xbe5ed692	-0.2176154
7	0xbea55161	-0.3228865
8	0x3e8b2e48	0.27183747
9	0x3e4ed4b6	0.2019833
10	0x3e8a4783	0.27007684
11	0x3af881e8	0.0018959614
12	0x3e881641	0.26579478
13	0xbd5bcae8	-0.053660303
14	0x3e223cb9	0.15843476
15	0x3e8dae35	0.27671972
16	0xbe47463d	-0.19460388
17	0xbca05978	-0.019573912
18	0x3e4159f0	0.18881965
19	0x3ddd7462	0.10813214
20	0xbe00f1f1	-0.12592293
21	0x3e04517b	0.12921707
22	0x3e3684ed	0.17824145
23	0xbdb08478	-0.086190164
24	0x3dcf4227	0.101200394
25	0x3e1afc71	0.15135361
26	0xbdb77ba4	-0.089591295
27	0xbe1a8250	-0.15088773
28	0x3dc99d07	0.09844404
29	0x3ea3ccc1	0.31992152
30	0xbe734455	-0.23756535
31	0x3a6d562e	0.00090536743
32	0xbd8f04de	-0.0698335
33	0xbdc29bc9	-0.0950237
34	0xbe03fd25	-0.12889536
35	0xbdcb9d79	-0.09942145
36	0xbe0e5eb0	-0.13903308
37	0xbe04b218	-0.12958562
38	0xbe2c66e2	-0.16836122
39	0x3f09bd30	0.538043
40	0xbda812ec	-0.08206734
41	0xbc08d1a6	-0.008350765
42	0xbe30fc93	-0.1728385
43	0xbe2afc43	-0.16697793
44	0xbd417b5e	-0.047236793
45	0x3d6d5a7b	0.057947617
46	0x3f4b13e1	0.7932721
47	0x3e4beff2	0.1991575
48	0x3f4195ec	0.7561939
49	0x3e719465	0.23591764
50	0xbd089301	-0.03334332
51	0x3bffda66	0.0078080175
52	0xbde4fdb3	-0.11181202
53	0xbd318038	-0.04333517
54	0x3da29f64	0.079405576
55	0x3d129717	0.03578862
56	0xbe844ed3	-0.25841388
57	0x3e6f5f37	0.23376165
58	0xbe8b3541	-0.27189067
59	0xbe9ae671	-0.30253938
60	0x3e33d7f8	0.17562854
61	0x3e756ed7	0.23968063
62	0xbec030aa	-0.37537128
63	0xbe07255c	-0.13197845
64	0xbc9b46b5	-0.018954614
65	0xbee22203	-0.44166574
66	0x3eab6496	0.33475178
67	0x3dfabdb2	0.12243213
68	0xbeb4454c	-0.3520912
69	0x3e7fe321	0.24988987
70	0xbd6d47ba	-0.057929732
71	0x3e03cc8f	0.12871002
72	0xbe8ec238	-0.27882552
73	0x3ce04d95	0.027380744
74	0x3e0b87aa	0.1362597
75	0x3d33c09d	0.043884862
76	0x3e820626	0.25395316
77	0xbe051c78	-0.12999141
78	0x3f1f8c01	0.62323004
79	0x3d428da3	0.047498357
80	0x3e4ae838	0.19815147
81	0xbe26c297	-0.16285168
82	0xba782d22	-0.00094671745
83	0xbe20ee53	-0.15715913
84	0x3fb7721d	1.43317
85	0x3f056ba5	0.5211738
86	0x3e50473d	0.20339675
87	0x3d51c6cb	0.051214974
88	0xbec70817	-0.3887336
89	0x3e8c4cd0	0.27402353
90	0x3af16c32	0.0018419086
91	0x3e099183	0.13434415
92	0xbcbff5b6	-0.023432594
93	0xbe649a73	-0.22324543
94	0x3e483f7a	0.19555464
95	0xbdbaa878	-0.09114164
96	0x3d0028b3	0.031288814
97	0xbd50b03c	-0.05094932
98	0xbdac3ce2	-0.0841005
99	0xbda8c469	-0.08240587
100	0xbe005a7e	-0.1253452
101	0x3e4fff17	0.20312153
102	0x3b2657aa	0.0025381842
103	0xbd9779d1	-0.073962815
104	0xbe9836f7	-0.29729435
105	0xbec57bfa	-0.3857115
106	0x3cbb9b7d	0.022901291
107	0x3e6bd8eb	0.23031966
108	0x3e8f5116	0.2799155
109	0xbdfca07a	-0.12335296
110	0xbd9fe3a3	-0.0780709
111	0x3e1d8428	0.15382445
112	0xbe50499f	-0.20340584
113	0xbe7ea0b7	-0.24865995
114	0xbe2061e6	-0.15662345
115	0xbd1781aa	-0.03698889
116	0xbd9ba8df	-0.07600569
117	0xbecd7be9	-0.40133598
118	0x3df5569f	0.11979412
119	0x3ea0866d	0.3135256
120	0xbd701854	-0.05861695
121	0x3f5a18db	0.85194176
122	0xbea8f3fa	-0.3299864
123	0x3ea3e3fa	0.3200987
124	0x3eef1bdf	0.4670095
125	0x3f9ed576	1.2408893
126	0x3d9c53a4	0.07633141
127	0xbdf8ef80	-0.12155056
